mini_ml_api/model/travel_time_model.pt (torch, 12972 bytes, 5 tensors)

0.weight f4 [64, 6]
-0.31388757 0.38426223 0.18630229 0.11426719 0.23347338 0.103679486 -0.16350055 0.0010091875
-0.08336875 0.116012014 0.08341773 -0.06509526 -0.29555592 0.36872208 -0.12009289 -0.19630288
0.12594591 -0.17262818 -0.051570836 0.40302092 -0.06860905 -0.05699111 0.12156326 -0.07671623
-0.09164302 0.42799562 -0.051307168 -0.040391132 0.1097101 -0.01786305 0.11893817 -0.3785055
0.12348001 0.13698411 0.073909946 -0.32003394 -0.2825021 -0.31201804 -0.048006117 -0.13898367
-0.33206797 0.29711136 0.05582815 0.009373127 -0.3092384 -0.09935562 -0.10007956 -0.2582279
-0.23596995 -0.43187755 -0.042391703 0.32835796 -0.22608203 0.19982015 0.34048027 -0.11264519
0.023691228 0.045195952 0.20345551 -0.17596829 -0.2111895 -0.10601906 -0.2703597 -0.19965154
-0.5656602 0.067398235 -0.16409838 0.19050638 0.0085869 0.02742915 0.39315015 -0.107066154
-0.33569932 0.049798034 -0.16498788 -0.29535735 0.36909667 0.1672062 0.08409205 -0.16756573
-0.34298044 -0.3326353 -0.431958 -0.48965475 -0.40632156 0.029986689 0.24321254 0.112480626
0.07180936 0.022366421 -0.0662945 0.44046715 0.0027805232 -0.004715119 0.17766507 -0.044377245
-0.07551418 0.17795219 0.08961584 -0.14914255 0.30309388 0.09565909 -0.023635812 0.47054684
-0.18762565 -0.22513106 0.40411097 -0.21355662 -0.17043051 0.30270416 -0.10060561 0.04991872
0.21456003 -0.049765255 0.15133673 0.4971713 0.24089867 0.2577981 -0.10814185 -0.2903587
-0.12767544 -0.3135403 -0.1782932 -0.074318185 0.37055048 0.23207669 -0.20562898 0.3997745
-0.28707373 -0.12879784 0.113031864 0.2737531 0.05014749 -0.055103164 -0.3343814 0.16179143
0.43245313 -0.34425616 -0.0055579087 0.46304896 0.23547675 -0.1859546 0.1830045 -0.094326906
0.42046338 0.12827374 -0.17269635 -0.34972635 0.2636873 -0.06509363 -0.42192924 0.28031448
0.17039023 -0.2617739 -0.018829443 -0.1675043 -0.040142074 -0.37945184 -0.2723818 0.27811834
-0.20425363 0.4171143 0.22620007 0.070041634 -0.1054159 -0.29756346 -0.5170453 -0.2578303
0.24538063 -0.23647991 -0.3348169 -0.00021611559 0.122045465 0.5100605 -0.29440042 -0.47055212
0.25858742 -0.028564151 -0.0725025 0.24722078 -0.10386443 -0.3302686 -0.0787679 0.024352219
0.12727538 -0.07582639 -0.08973045 0.51829815 -0.07324975 -0.06343829 -0.26715228 -0.012896484
-0.28586116 0.38492408 -0.0029881008 0.092682935 -0.030172491 -0.059084006 0.2186783 0.4388574
-0.083883226 0.027746167 0.1713644 -0.03845136 -0.23546173 0.31692842 -0.12950484 0.33388665
0.18148549 0.11367827 -0.09546328 -0.52918357 -0.012924442 -0.010117802 0.009374589 -0.7546387
-0.14564697 -0.18670353 -0.2606084 -0.27534455 0.2905718 0.31941858 -0.013067718 -0.54081875
-0.019615358 -0.10627241 0.3062184 -0.52783924 -0.28180143 0.25335726 -0.007009791 -0.00062560657
0.2538717 -0.06470266 0.31455997 -0.27754804 -0.3604293 0.20136575 0.36222565 0.016960585
-0.077189445 0.35771328 -0.0031325456 -0.032760136 0.072147 -0.015537915 0.40119016 0.27160117
0.28653258 0.17468312 -0.3300121 -0.46821553 -0.11401584 -0.00042750503 -0.29645535 -0.2759577
00000000: dfb5 a0be 05be c43e 07c6 3e3e eb04 ea3d
00000010: a513 6f3e e955 d43d b06c 27be b746 843a
00000020: 3cbd aabd b597 ed3d ead6 aa3d aa50 85bd
00000030: 1b53 97be 24c9 bc3e 43f3 f5bd 9f03 49be
00000040: f7f7 003e 71c5 30be f13b 53bd c258 ce3e
00000050: e782 8cbd 836f 69bd 29f6 f83d 661d 9dbd
00000060: 56af bbbd 3e22 db3e 7727 52bd 2c71 25bd
00000070: b0af e03d 8855 92bc db95 f33d 79cb c1be
00000080: 16e3 fc3d 9045 0c3e 195e 973d 7ddb a3be
00000090: 1ea4 90be d4c0 9fbe 10a2 44bd bc51 0ebe
000000a0: d004 aabe fb1e 983e 0fac 643d be91 193c
000000b0: 7f54 9ebe f67a cbbd 83f6 ccbd 7336 84be
000000c0: 1ba2 71be 0e1f ddbe eca2 2dbd 891e a83e
000000d0: 0c82 67be a79d 4c3e 6e53 ae3e 85b2 e6bd
000000e0: 1b14 c23c 641f 393d a456 503e 0831 34be
000000f0: 0f42 58be 8520 d9bd 966c 8abe 7471 4cbe
00000100: 1bcf 10bf 1608 8a3d 6809 28be 1b14 433e
00000110: 12b0 0c3c 19b3 e03c fa4a c93e 8045 dbbd
00000120: c8e0 abbe 06f9 4b3d 95f2 28be 1439 97be
00000130: 3dfa bc3e 1a38 2b3e 7438 ac3d 5a96 2bbe
00000140: 229b afbe 2d4f aabe 9929 ddbe 07b4 fabe
00000150: 6109 d0be a5a6 f53c b50c 793e 3e5c e63d
00000160: c910 933d c939 b73c 69c5 87bd e984 e13e
00000170: 7039 363b 4981 9abb d5ed 353e eac4 35bd
00000180: 2ea7 9abd 1939 363e 8288 b73d d3b8 18be
00000190: 1f2f 9b3e eae8 c33d e49f c1bc 84eb f03e
000001a0: f020 40be c288 66be a2e7 ce3e 96ae 5abe
000001b0: 5685 2ebe 0afc 9a3e 500a cebd 9277 4c3d
000001c0: a0b5 5b3e a7d6 4bbd 04f8 1a3e 3d8d fe3e
000001d0: 24ae 763e 1dfe 833e 7979 ddbd e5a9 94be
000001e0: 5abd 02be 5b88 a0be 7e92 36be 2234 98bd
000001f0: cbb8 bd3e 83a5 6d3e 6790 52be 3eaf cc3e
00000200: 54fb 92be 95e3 03be 407d e73d 5e29 8c3e
00000210: 7467 4d3d dbb3 61bd 0a34 abbe a7ac 253e
00000220: 7f6a dd3e 5842 b0be 1e1f b6bb c114 ed3e
00000230: d120 713e e26a 3ebe 8865 3b3e 772e c1bd
00000240: fa46 d73e 315a 033e 50d7 30be 550f b3be
00000250: 0602 873e cf4f 85bd 1c07 d8be 6185 8f3e
00000260: c77a 2e3e 3b07 86be 3440 9abc 3f86 2bbe
00000270: 046c 24bd 8347 c2be a175 8bbe 8765 8e3e
00000280: dd27 51be 0190 d53e fea0 673e fd71 8f3d
00000290: 4be4 d7bd 3d5a 98be 155d 04bf 5502 84be
000002a0: 0f45 7b3e ca27 72be 1f6d abbe 169d 62b9
000002b0: f9f2 f93d 5393 023f a7bb 96be 35ec f0be
000002c0: 9265 843e 5eff e9bc 317c 94bd 7227 7d3e
000002d0: e0b6 d4bd f718 a9be 1151 a1bd 4e7e c73c
000002e0: 7a54 023e de4a 9bbd 99c4 b7bd 30af 043f
000002f0: f703 96bd efeb 81bd 2fc8 88be c64b 53bc
00000300: 655c 92be c514 c53e 03d4 43bb 8dd0 bd3d
00000310: 4d2c f7bc 1202 72bd 34ed 5f3e ebb1 e03e
00000320: f8ca abbd ee4b e33c 267a 2f3e 2c7f 1dbd
00000330: e11c 71be 7144 a23e eb9c 04be 31f3 aa3e
00000340: 55d7 393e 27d0 e83d 4182 c3bd 9378 07bf
00000350: 0ac1 53bc 23c5 25bc e097 193c 0030 41bf
00000360: 7b24 15be 362f 3fbe 776e 85be f6f9 8cbe
00000370: d4c5 943e d58a a33e fb19 56bc 1973 0abf
00000380: 63b0 a0bc 59a5 d9bd a8c8 9c3e 7920 07bf
00000390: 4748 90be 0bb8 813e 64b2 e5bb bfff 23ba
000003a0: 79fb 813e d482 84bd 010e a13e c71a 8ebe
000003b0: 308a b8be d332 4e3e a475 b93e edf0 8a3c
000003c0: 8015 9ebd 3226 b73e 654b 4dbb 7e2f 06bd
000003d0: cec1 933d bd92 7ebc cc68 cd3e 4f0f 8b3e
000003e0: 66b4 923e 22e0 323e 59f7 a8be f2b9 efbe
000003f0: 2381 e9bd c122 e0b9 ffc8 97be 544a 8dbe

0.bias f4 [64]
-0.1319336 0.0044552325 -0.30646592 -0.43571383 -0.42182484 -0.12672749 0.3122294 -0.24712825
-0.16143078 0.5563324 -0.19935744 0.18704177 0.34583735 -0.059197776 0.21777287 -0.52001673
0.19454904 -0.010568727 -0.2582786 -0.065338 -0.29712486 0.26728204 -0.01790929 0.035937503
-0.32799923 -0.14077726 0.24945255 -0.013460567 -0.17238744 0.3619751 0.30577567 0.028318284
-0.5293761 0.117616415 0.14043212 0.010487882 -0.23068924 0.0944005 -0.2255381 0.35639957
-0.41523275 0.038947742 -0.109060906 -0.27253228 0.037475925 -0.24452952 0.40791917 -0.14662835
-0.0979652 -0.43120345 0.27297142 0.20140363 0.5296358 -0.31804636 0.33410597 0.048483066
0.40299585 0.15579581 -0.53199697 0.079931 0.13944525 0.2561094 0.2857936 -0.056577623
00000000: 9a19 07be 33fd 913b 1ae9 9cbe e215 dfbe
00000010: 6df9 d7be dac4 01be 88dc 9f3e 300f 7dbe
00000020: 1c4e 25be cd6b 0e3f 5b24 4cbe e187 3f3e
00000030: 9811 b13e 5e79 72bd daff 5e3e d11f 05bf
00000040: dd37 473e 7428 2dbc 183d 84be eecf 85bd
00000050: c020 98be 31d9 883e 81b6 92bc 3433 133d
00000060: 84ef a7be ea27 10be 7d70 7f3e b689 5cbc
00000070: 5586 30be cd54 b93e a18e 9c3e bffb e73c
00000080: 3185 07bf e0e0 f03d 70cd 0f3e 5ed5 2b3c
00000090: cd39 6cbe 0d55 c13d 76f3 66be 017a b63e
000000a0: 6399 d4be ab87 1f3d 535b dfbd 5a89 8bbe
000000b0: 5b80 193d f265 7abe c8da d03e be25 16be
000000c0: fba1 c8bd b3c6 dcbe e9c2 8b3e c13c 4e3e
000000d0: 3696 073f f9d6 a2be f00f ab3e 2e96 463d
000000e0: 7955 ce3e f088 1f3e f430 08bf ddb2 a33d
000000f0: bcca 0e3e c520 833e 8a53 923e f0bd 67bd

3.weight f4 [32, 64]
0.06631156 0.063704856 -0.03153893 0.04337525 0.16223316 0.09756011 0.022174874 -0.105532736
-0.13270417 -0.15990967 -0.085133925 0.030934043 0.014278898 -0.10642581 0.07819028 0.11878154
-0.0070335697 0.11770327 0.17769039 0.013354032 -0.048418038 0.10104293 -0.022693472 0.10170808
-0.15696834 0.08502869 -0.017022375 -0.0940178 -0.14424632 -0.0551997 -0.015715236 -0.09571793
0.11536926 0.07305249 0.0686365 -0.38271713 -0.062537976 -0.019852282 0.1700408 -0.0939634
0.20122592 0.04100999 0.035247367 -0.113403045 0.096005484 -0.022551503 -0.16429514 -0.055697363
-0.19184151 -0.04308455 0.06725439 -0.09374339 -0.039868467 -0.17495637 0.010394372 0.005203864
-0.015152974 -0.05577447 0.1610384 -0.16432087 -0.122653514 -0.01791079 -0.114054024 -0.10609986
0.01423572 0.09530898 0.06340303 0.2126771 0.15135156 -0.09184471 0.014896496 0.10935911
-0.123760395 -0.057198085 0.03615975 0.19619098 0.05657049 -0.060382623 0.21589722 0.17748383
0.13577141 -0.03060802 0.18805712 0.07031684 0.027007867 0.15618117 0.040845986 0.06810731
-0.0446046 -0.044649772 0.01886959 -0.2317249 -0.09024556 0.06115845 0.030161276 0.12372176
0.08556754 0.11591816 0.12542059 0.09944616 0.08040391 -0.002142547 0.09967271 0.005914764
0.14079349 0.08453195 -0.04331482 0.028222576 0.12892278 0.069861285 -0.045054656 0.08082204
0.0044184346 0.23719224 0.015195109 0.12624368 -0.016307158 -0.22269864 0.11413269 0.08799398
0.012604897 0.107281394 0.1955825 0.022462599 0.030026149 0.06485896 -0.05593557 0.043412622
0.024449157 -0.0013609475 -0.014222758 0.06423034 -0.13017075 0.03499126 0.086198986 -0.1263592
-0.10259422 0.04589619 -0.019751143 0.05521883 -0.09731842 0.072180204 0.071946114 -0.1293628
0.07260441 0.0072575067 -0.011936361 -0.004838013 0.050739806 -0.10714907 0.02598319 -0.1255602
-0.044350848 -0.054626968 -0.08743779 0.06425478 0.00032634282 -0.05664227 -0.013633993 0.054096106
0.053325336 -0.03420452 0.009515571 -0.030454723 -0.026740776 -0.051549878 -0.080973685 -0.089997396
-0.01577579 0.036032762 -0.040577106 -0.09801256 -0.0121936 0.057841018 -0.08364862 -0.06811858
-0.035432413 -0.051144138 -0.060404554 0.039199483 0.043738674 -0.10233101 0.02439129 -0.046130084
-0.09344741 -0.1480665 -0.045458328 -0.01652948 0.046007074 -0.063405976 0.07364497 -0.07152012
0.072056435 -0.11527502 -0.047319748 -0.072788574 -0.07474577 -0.21441089 0.05891326 -0.152318
0.048852466 0.06343749 -0.20681083 0.094243884 -0.016070038 -0.10052633 0.1234994 0.07586541
0.03533303 -0.0014337515 0.027579667 -0.06732096 -0.0028051953 0.0054732687 0.01744265 0.01867917
0.011626508 0.03550949 -0.08090317 -0.11488363 -0.09271667 -0.15307374 -0.0031564275 -0.18390343
-0.10292343 -0.011079739 0.031556316 0.007202041 0.029661063 -0.12851313 0.002455525 -0.032248378
-0.18391779 0.014975154 0.0042545563 0.04953183 -0.01712936 0.055985577 -0.04798435 0.04270256
-0.008570447 -0.29020643 0.030702388 -0.037280284 -0.055706557 -0.09241888 0.07981153 -0.029673325
-0.053996272 -0.05917497 0.011771186 -0.16984944 0.016469348 -0.019538172 0.15305384 -0.04916973
00000000: 5bce 873d b177 823d f72e 01bd 3faa 313d
00000010: 7320 263e 98cd c73d 15a8 b53c 8c21 d8bd
00000020: 9ae3 07be 5cbf 23be b25a aebd 6469 fd3c
00000030: 0af2 693c c6f5 d9bd 3a22 a03d bc43 f33d
00000040: dc79 e6bb 690e f13d 78f4 353e dfca 5a3c
00000050: fe51 46bd 98ef ce3d a9e7 b9bc 534c d03d
00000060: 4fbc 20be 8623 ae3d 8272 8bbc 688c c0bd
00000070: 4fb5 13be 1519 62bd 3dbd 80bc c307 c4bd
00000080: b846 ec3d 8b9c 953d 4b91 8c3d 80f3 c3be
00000090: e913 80bd 41a1 a2bc 2d1f 2e3e e26f c0bd
000000a0: 2b0e 4e3e 17fa 273d 8b5f 103d db3f e8bd
000000b0: 869e c43d eebd b8bc fc3c 28be eb22 64bd
000000c0: 1a72 44be 6d79 30bd abbc 893d 89fc bfbd
000000d0: 1e4d 23bd c327 33be 284d 2a3c 2d85 aa3b
000000e0: 2e44 78bc c573 64bd 40e7 243e bb43 28be
000000f0: c431 fbbd a6b9 92bc 2895 e9bd e24a d9bd
00000100: f03c 693c 5b31 c33d 73d9 813d 07c8 593e
00000110: e7fb 1a3e 1419 bcbd 6f10 743c abf7 df3d
00000120: 1776 fdbd 8a48 6abd 3f1c 143d 4ae6 483e
00000130: 75b6 673d c553 77bd 2914 5d3e 52be 353e
00000140: a907 0b3e acbd fabc 0c92 403e 4702 903d
00000150: 9a3f dd3c f5ed 1f3e 1f4e 273d d87b 8b3d
00000160: 50b3 36bd aee2 36bd 6694 9a3c 4b49 6dbe
00000170: aad2 b8bd 4881 7a3d c814 f73c d661 fd3d
00000180: 093e af3d 8066 ed3d 416e 003e 6eaa cb3d
00000190: ceaa a43d f969 0cbb 3521 cc3d a3d0 c13b
000001a0: 2b2c 103e 161f ad3d e16a 31bd 0833 e73c
000001b0: 5504 043e 6f13 8f3d 3b8b 38bd 0786 a53d
000001c0: 84c8 903b 86e2 723e e8f4 783c 0646 013e
000001d0: 9796 85bc 1d0b 64be 66be e93d 3036 b43d
000001e0: c584 4e3c 59b6 db3d c746 483e 7c03 b83c
000001f0: 66f9 f53c c6d4 843d b21c 65bd 6fd1 313d
00000200: 9949 c83c d261 b2ba 9206 69bc 328b 833d
00000210: 7b4b 05be ff52 0f3d 1889 b03d 4e64 01be
00000220: eb1c d2bd a5fd 3b3d 26cd a1bc 242d 623d
00000230: e14e c7bd 37d3 933d 7c58 933d af77 04be
00000240: 9fb1 943d 61d0 ed3b ba90 43bc 3288 9ebb
00000250: 8bd4 4f3d f970 dbbd b3da d43c da92 00be
00000260: 3ca9 35bd 87c0 5fbd 9612 b3bd 0398 833d
00000270: fe18 ab39 ba01 68bd 1d61 5fbc e193 5d3d
00000280: ab6b 5a3d 0a1a 0cbd 33e7 1b3c 2f7c f9bc
00000290: 790f dbbc f725 53bd 88d5 a5bd 8e50 b8bd
000002a0: 3b3c 81bc 1797 133d 2e34 26bd cfba c8bd
000002b0: aac7 47bc b4ea 6c3d f84f abbd c181 8bbd
000002c0: 9421 11bd 847c 51bd c46a 77bd a38f 203d
000002d0: 5327 333d ec92 d1bd 3ed0 c73c e6f2 3cbd
000002e0: 5b61 bfbd bf9e 17be 8332 3abd d568 87bc
000002f0: ea71 3c3d feda 81bd 2dd3 963d 2479 92bd
00000300: 5392 933d 4f15 ecbd 5ad2 41bd 2d12 95bd
00000310: 4f14 99bd 878e 5bbe 084f 713d 40f9 1bbe
00000320: 8619 483d 84eb 813d 38c6 53be f002 c13d
00000330: 50a5 83bc c0e0 cdbd 41ed fc3d 535f 9b3d
00000340: 5eb9 103d b8ec bbba c1ee e13c 92df 89bd
00000350: 5ed7 37bb 1b59 b33b e3e3 8e3c 0f05 993c
00000360: 1c7d 3e3c 6672 113d 90b0 a5bd 1c48 ebbd
00000370: 3de2 bdbd 5dbf 1cbe 11dc 4ebb 2e51 3cbe
00000380: 85c9 d2bd cb87 35bc 3241 013d 19ff eb3b
00000390: c2fb f23c f298 03be e0ec 203b e016 04bd
000003a0: f254 3cbe 595a 753c ce69 8b3b e3e1 4a3d
000003b0: df52 8cbc 2251 653d 3d8b 44bd e1e8 2e3d
000003c0: 0f6b 0cbc f095 94be 9383 fb3c 36b3 18bd
000003d0: 8f2c 64bd 1c46 bdbd 3a74 a33d 7915 f3bc
000003e0: 322b 5dbd 7461 72bd efdb 403c 03ed 2dbe
000003f0: baea 863c 840e a0bc 25ba 1c3e 3366 49bd

3.bias f4 [32]
0.038261928 -0.059104044 -0.04142829 -0.10117228 -0.07081128 -0.07105659 0.04496872 -0.049916334
0.008737912 -0.23446622 0.09299594 0.077741206 0.048392247 -0.07208813 0.086132534 -0.15761733
-0.24117339 -0.07798845 -0.062183775 -0.08675231 0.059604876 -0.12825029 -0.102473915 0.13258597
-0.113039814 -0.12131904 -0.104695804 0.09382778 0.083276674 0.09610315 0.006412224 0.052733507
00000000: 8ab8 1c3d 1517 72bd b6b0 29bd 6a33 cfbd
00000010: 8105 91bd 1e86 91bd 1f31 383d 1275 4cbd
00000020: 7629 0f3c ea17 70be a874 be3d c836 9f3d
00000030: f336 463d f1a2 93bd 4166 b03d 7066 21be
00000040: 28f6 76be 69b8 9fbd 6ab4 7ebd 32ab b1bd
00000050: 3e24 743d 0b54 03be d8dd d1bd 9ec4 073e
00000060: 6b81 e7bd 1e76 f8bd c16a d6bd c728 c03d
00000070: f68c aa3d bad1 c43d a21d d23b 17ff 573d

6.weight f4 [1, 32]
0.22136252 0.08176466 -0.070777155 -0.15884484 -0.0224318 -0.12067955 -0.028817235 -0.08712837
-0.12830742 0.5143057 -0.06000659 -0.05295086 0.18988831 0.11363475 0.16279641 0.31794843
0.35144505 0.29916853 0.2932687 -0.082144946 -0.14866187 -0.103066765 -0.04931458 -0.21971783
-0.1151046 -0.041004922 -0.05257863 0.20122464 0.16854168 -0.049642157 -0.030262684 0.15773341
00000000: dbac 623e 3b74 a73d 9df3 90bd 39a8 22be
00000010: e5c2 b7bc d726 f7bd 1f12 ecbc 5c70 b2bd
00000020: 0563 03be 8aa9 033f 78c9 75bd 00e3 58bd
00000030: 1572 423e 56b9 e83d 1ab4 263e 23ca a23e
00000040: 9bf0 b33e 9e2c 993e 5127 963e 9c3b a8bd
00000050: d13a 18be ab14 d3bd 16fe 49bd b6fd 60be
00000060: f6bb ebbd c7f4 27bd b15c 57bd d50d 4e3e
00000070: 3196 2c3e 9355 4bbd 73e9 f7bc de84 213e
