mini_ml_api/model/travel_time_model.pt (torch, 12972 bytes, 5 tensors)

0.weight f4 [64, 6]
0	0xbe9be4f4	-0.30448115
1	0xbe031082	-0.12799266
2	0xbd8a4aba	-0.06752534
3	0x3d4fbb90	0.050715983
4	0x3e83891f	0.25690553
5	0x3e84baa9	0.2592366
6	0xbe8b48fd	-0.27204123
7	0x3e60001f	0.21875046
8	0x3e097da8	0.1342684
9	0x3d9f1f43	0.077696346
10	0x3e75cc98	0.24003828
11	0x3e09b253	0.13446932
12	0xbde4419b	-0.11145326
13	0xbe6612a5	-0.2246805
14	0xbdca1bd1	-0.09868587
15	0x3e9502c1	0.29103664
16	0x3cf76617	0.030200047
17	0x3ed99415	0.4249579
18	0xbe635daf	-0.22203706
19	0xbf0037b0	-0.5008497
20	0x3e440ba6	0.19145069
21	0x3e5efb74	0.21775609
22	0x3e018ec9	0.12652124
23	0x3e60beb4	0.21947747
24	0x3eae750e	0.3407368
25	0x3dc605f7	0.096691065
26	0x3d9732ff	0.073827736
27	0xbd049f7a	-0.03237865
28	0x3df22851	0.11824096
29	0xbda0c039	-0.078491636
30	0xbbfb24e8	-0.0076643117
31	0xbe8e6674	-0.2781254
32	0x3d83f559	0.06443281
33	0xbd1de9d8	-0.03855309
34	0xbd82def4	-0.06390181
35	0xbdad23b9	-0.08454079
36	0xbe837426	-0.25674552
37	0x3eb31326	0.34975547
38	0x3e13fa13	0.14450864
39	0x3e0d5921	0.13803531
40	0x3e79c4eb	0.24391524
41	0xbe0ae59d	-0.13564153
42	0x3d9f24c6	0.07770686
43	0xbe637528	-0.2221266
44	0xbe545e92	-0.207392
45	0xbd8af35b	-0.067846976
46	0x3e796c1d	0.24357648
47	0x3e98c141	0.2983494
48	0x3ea17a90	0.3153882
49	0xbe5c0afb	-0.21488564
50	0xbdfc2312	-0.12311377
51	0xbea7e0be	-0.32788652
52	0x3e9b4a7c	0.30330265
53	0x3d74120a	0.059587516
54	0xbec488bc	-0.3838557
55	0x3e7835ee	0.24239323
56	0xbe099a51	-0.13437773
57	0x3e3ec23a	0.18628779
58	0x3ea3fbd2	0.3202806
59	0x3e028bad	0.12748595
60	0x3ce90ae9	0.028447585
61	0xbe2d0646	-0.16896924
62	0xbd9f6044	-0.07782033
63	0xbe9a628c	-0.3015331
64	0xbe4904e1	-0.19630767
65	0x3e11b258	0.14228189
66	0x3da428b1	0.08015574
67	0xbead6957	-0.3386943
68	0x3eb5e194	0.35523665
69	0xbd0f9fa6	-0.035064362
70	0xbd254fa3	-0.04035915
71	0x3d2777cb	0.040885728
72	0xbd75b489	-0.059986625
73	0xbdc12ffc	-0.094329804
74	0xbda61988	-0.081103384
75	0xbe7aa226	-0.24475917
76	0xbe98dc7f	-0.29855725
77	0x3e429bcb	0.19004743
78	0xbe88f105	-0.26746383
79	0x3ea9e2fb	0.33180985
80	0x3ceb4d40	0.02872336
81	0x3cacdc11	0.02110103
82	0x3df93e5e	0.12170099
83	0x3adc36f7	0.0016801049
84	0x3ccf07dc	0.025272302
85	0xbead5ff1	-0.3386226
86	0x3d6a4ea4	0.057203904
87	0x3c94d042	0.018165711
88	0x3e68f137	0.22748266
89	0xbd2fb002	-0.042892464
90	0x3e826dcb	0.2547439
91	0x3e8d07f1	0.2754512
92	0x3e64d025	0.22345026
93	0xbe852351	-0.26003507
94	0xbea57222	-0.3231364
95	0xbea93739	-0.33049944
96	0x3e8e9e36	0.2785508
97	0x3eeabfa7	0.45849344
98	0x3e75634b	0.23963659
99	0x3cba38e8	0.022732213
100	0x3e16f96b	0.14743583
101	0x3d9b9fea	0.075988606
102	0xbeaba1ce	-0.33521885
103	0xbea57bf4	-0.3232113
104	0xbe406e44	-0.18792063
105	0xbecead32	-0.40366513
106	0xbe50cbff	-0.20390318
107	0x3ebe7df2	0.37205464
108	0x3daa138b	0.08304509
109	0x3ef82246	0.4846365
110	0x3db8773d	0.09007118
111	0xbe368284	-0.17823225
112	0x3e6dc906	0.23221216
113	0xbd9a5ef5	-0.07537643
114	0xbe4ba5e0	-0.19887495
115	0xbddfa461	-0.10920025
116	0xbecbd712	-0.39812523
117	0x3e84e155	0.25953165
118	0x3ec5f522	0.38663584
119	0x3ec0d7b9	0.37664583
120	0x3e284f6a	0.16436544
121	0xbea32b34	-0.318689
122	0x3e97d505	0.29654709
123	0xbea391d8	-0.31947207
124	0xbea0d1b3	-0.31409988
125	0xbcc33847	-0.023830546
126	0xbeae8b72	-0.34090763
127	0xbdefb92f	-0.11705243
128	0xbeb4cf43	-0.35314378
129	0x3b5934f0	0.0033143125
130	0xbe9aee06	-0.30259722
131	0xbd26eb6b	-0.040751856
132	0xbd9d9d03	-0.07695963
133	0x3edd5a59	0.43232992
134	0x3e3f86fa	0.18703833
135	0x3e845186	0.25843447
136	0x3d6756bd	0.056479204
137	0xbe6f77be	-0.23385522
138	0x3d3cbfde	0.046081416
139	0x3ea6f76a	0.32610637
140	0x3c8a7b1a	0.016904403
141	0xbb3ccf47	-0.002881007
142	0xbe4ff24b	-0.20307271
143	0x3eabff5b	0.33593258
144	0xbe333658	-0.17501199
145	0xbd4851d3	-0.04890616
146	0x3d13ad2f	0.036053833
147	0x3e2ac4cc	0.16676635
148	0x3dce2201	0.100650795
149	0x3ded76b1	0.11594904
150	0xbe0d804f	-0.13818477
151	0xbdefc10f	-0.11706745
152	0xbe3dbd1f	-0.18529175
153	0xbe39c007	-0.18139659
154	0xbf0dedda	-0.5544106
155	0xbe613731	-0.2199371
156	0xbdec1028	-0.11526519
157	0x3df47c78	0.11937803
158	0xbe148c91	-0.14506747
159	0xbe960a7b	-0.2930487
160	0x3e5c4587	0.21510898
161	0x3e817df2	0.252914
162	0xbd8fbddf	-0.07018637
163	0xbe5a1425	-0.21296747
164	0xbecf2951	-0.4046121
165	0xbe934206	-0.2876131
166	0xbdb4d06c	-0.08828816
167	0xbec95b6f	-0.3932757
168	0xbd45e618	-0.048315138
169	0x3d8b8243	0.06811955
170	0xbe36ea3a	-0.17862788
171	0xbe06fab3	-0.13181572
172	0x3e757eae	0.23974106
173	0xbe650346	-0.2236453
174	0xbe4de015	-0.20105012
175	0x3ecfa53e	0.40555757
176	0xbcfae0f6	-0.030624848
177	0x3e191b71	0.14951874
178	0x3e98d1ad	0.2984747
179	0xbe513dae	-0.20433685
180	0xbd0c1dbc	-0.034208044
181	0x3ed6fffe	0.41992182
182	0xbe128c9a	-0.14311448
183	0xbe6a8ae4	-0.22904545
184	0x3eaaaaf3	0.3333355
185	0xbe361c6f	-0.17784284
186	0xbec16988	-0.37775826
187	0x3c77d2cf	0.015125944
188	0x3ec80ae8	0.3907082
189	0xbe89ef8d	-0.26940575
190	0xbe46fcd0	-0.19432378
191	0x3d252026	0.040313862
192	0x3ea42a8d	0.32063714
193	0xbeb2c872	-0.34918553
194	0xbeb20e0a	-0.34776336
195	0xbec199ea	-0.3781274
196	0xbe1dd869	-0.15414585
197	0x3dbe26b8	0.09284729
198	0x3eab5e5f	0.33470437
199	0xbea917e8	-0.33026052
200	0x3e43257e	0.19057271
201	0xbef9f3a1	-0.48818687
202	0x3e8b022c	0.27150095
203	0xbd1eb8c7	-0.038750436
204	0xbeb21954	-0.3478495
205	0x3eadb4e0	0.3392706
206	0x3dfc4db2	0.12319507
207	0x3cd0692b	0.025440773
208	0x3d90f46f	0.07077872
209	0xbcdf572a	-0.027263243
210	0xbc894bc1	-0.016759755
211	0x3edda997	0.4329345
212	0x39bfbe57	0.00036572173
213	0xbbe938d2	-0.007117369
214	0x3d084790	0.033271372
215	0xbbbef012	-0.0058269585
216	0x3e265c44	0.16246134
217	0x3ea1cdae	0.31602234
218	0x3e7e3acb	0.24827115
219	0xbd8fb679	-0.07017226
220	0xbeed343f	-0.46328923
221	0xbe994235	-0.29933324
222	0x3ca91847	0.02064146
223	0x3e9aaff6	0.30212373
224	0xbe2596a7	-0.1617075
225	0x3c573ce1	0.013137073
226	0x3ecacf9d	0.3961152
227	0xbe2c7ef2	-0.16845301
228	0x3d394713	0.045233797
229	0x3eef2306	0.46706408
230	0xbdda52ad	-0.106603004
231	0xbde04668	-0.10950929
232	0x3dbaa200	0.0911293
233	0xbd999ada	-0.07500239
234	0x3eac4eda	0.3365391
235	0xbdbf00f4	-0.09326354
236	0x3e5453d6	0.20735106
237	0x3e3f8e3b	0.187066
238	0xbd94ab6e	-0.0725926
239	0xbec53afc	-0.38521564
240	0xbec6e4f3	-0.3884655
241	0xbd1f461c	-0.03888522
242	0xbd3722eb	-0.044711035
243	0x3dca5c67	0.098809056
244	0x3e501676	0.20321068
245	0xbdfeb96a	-0.12437709
246	0xbec96960	-0.39338207
247	0x3e3efbf4	0.186508
248	0x3d62e8ff	0.055397984
249	0xbd2a1486	-0.04152348
250	0x3ea849aa	0.328687
251	0x3e33ca80	0.17557716
252	0xbeeda3f7	-0.46414158
253	0xbe357783	-0.17721371
254	0x3e78e961	0.24307777
255	0xbdef97af	-0.11698853

0.bias f4 [64]
0	0xbef31bca	-0.4748214
1	0xbec0e6a3	-0.37675962
2	0xbdc57066	-0.09640579
3	0x3ed312dd	0.4122533
4	0x3ea4ab2e	0.3216185
5	0x3f06ddd1	0.52682215
6	0xbf072501	-0.5279084
7	0xbc0fab06	-0.0087688025
8	0x3e6a9963	0.22910075
9	0xbe655a98	-0.2239784
10	0x3ed91166	0.42396086
11	0x3e9ffe88	0.3124888
12	0x3ea37cdd	0.319312
13	0xbf26e355	-0.6519063
14	0x3ecc34d4	0.39884055
15	0x3eb3aa6b	0.35090956
16	0x3e1a422a	0.15064302
17	0x3dc2cf79	0.095122285
18	0x3e36b667	0.17843018
19	0x3d3e1d71	0.046414796
20	0xbe43bed7	-0.19115768
21	0xbea95fc4	-0.33080876
22	0xbd7ac85d	-0.061226238
23	0xbe37f0c1	-0.17962934
24	0x3dd2e957	0.10298412
25	0xbe44de6d	-0.19225474
26	0x3e30a933	0.17252044
27	0x3de18da9	0.11013348
28	0x3ed391a7	0.4132206
29	0xbd0ee6fa	-0.034888245
30	0xbe9acbd0	-0.30233622
31	0xbe882db9	-0.26597384
32	0x3e7bb874	0.24582082
33	0x3dd521bd	0.10406826
34	0xbf1d12cb	-0.613568
35	0xbf11ba83	-0.5692522
36	0xbe59094d	-0.21194954
37	0x3eb2a336	0.34890145
38	0xbe9d1819	-0.30682448
39	0x3e872e7d	0.26402655
40	0xbd78888d	-0.0606771
41	0xbe04a92c	-0.12955159
42	0x3e6b1faf	0.22961305
43	0x3e03947f	0.12849616
44	0xbe845520	-0.25846195
45	0x3e5f2464	0.21791226
46	0xbef1c609	-0.472214
47	0xbb90cf1f	-0.004419222
48	0x3f0da83c	0.5533483
49	0x3e9e808a	0.30957443
50	0xbea28ac3	-0.31746492
51	0xbef69f87	-0.48168585
52	0xbd64ed6c	-0.055890486
53	0x3dd6833b	0.10474249
54	0xbe8df874	-0.27728617
55	0x3f030351	0.51176935
56	0xbf20390a	-0.62587035
57	0xbe81b310	-0.25331926
58	0x3ea7802a	0.3271497
59	0x3de4aee2	0.11166169
60	0x3e81e782	0.2537194
61	0x3e629ace	0.22129366
62	0x3eb03b7c	0.34420383
63	0x3e7d879b	0.2475876

3.weight f4 [32, 64]
0	0x3ccad711	0.024760755
1	0x3d894f67	0.06704598
2	0xbc32bc75	-0.0109091895
3	0xbd0f2f6b	-0.03495733
4	0xbdda0250	-0.10644972
5	0xbe03564e	-0.12825891
6	0xbd3b4733	-0.045722198
7	0x3d9517f0	0.07279956
8	0xbda74fd8	-0.08169526
9	0x3d49ae52	0.04923851
10	0x3bccd553	0.006251016
11	0xbe42479f	-0.18972634
12	0x3d484586	0.048894428
13	0x3e3f8ecb	0.18706815
14	0xbdff29fd	-0.124591805
15	0xbd89dcf5	-0.06731597
16	0x3de6f915	0.112779774
17	0x3cd1ea37	0.025624378
18	0x3d3e97cf	0.046531495
19	0xbda6f494	-0.08152118
20	0x3d7c9bc7	0.061672
21	0xbbe499a7	-0.0069763246
22	0x3d38a70f	0.045081194
23	0x3c8e9d77	0.01740907
24	0x3d4f14bc	0.050556883
25	0xbc16f144	-0.009212796
26	0xbd5fb2ed	-0.054613996
27	0x3d1ab245	0.037767667
28	0x3d23a68e	0.03995376
29	0x3e02b35a	0.1276373
30	0x3d8a5d07	0.06756025
31	0xbcebd874	-0.028789736
32	0xbdadfdd0	-0.084956765
33	0xbdf516d7	-0.11967247
34	0x3db76f7d	0.089568116
35	0x3e89c46f	0.2690768
36	0xbdc10d2d	-0.09426341
37	0x3e076c47	0.13224898
38	0x3de379b9	0.11107201
39	0x3ccccbc8	0.024999514
40	0x3dc119ec	0.09428772
41	0xbda3aeb8	-0.07992309
42	0x3da97fbc	0.082763165
43	0x3d6a30c8	0.057175428
44	0x3c88dbe3	0.016706413
45	0xbe4e4747	-0.20144378
46	0x3cc09b56	0.02351157
47	0xbc0693cc	-0.008213948
48	0xbda50cb3	-0.08059063
49	0xbcc2c596	-0.023775857
50	0xbe00428b	-0.12525384
51	0x3d9fa46f	0.07795035
52	0x3d8945d6	0.06702773
53	0x3d397504	0.04527761
54	0xbcbc564b	-0.022990366
55	0xbdb4dd01	-0.08831216
56	0x3eaf712a	0.34266025
57	0x3bfa8a5d	0.0076458887
58	0xbddbcb6f	-0.10732161
59	0xbe22e932	-0.1590927
60	0x3d368d6f	0.044568475
61	0x3dbbc979	0.09169287
62	0xbd5b9181	-0.05360556
63	0xbde839a0	-0.11339116
64	0x3da0dad6	0.0785424
65	0x3e6596f2	0.22420862
66	0xbdfcfddf	-0.123531096
67	0xbe268d00	-0.16264725
68	0xbe0b268a	-0.1358892
69	0xbe48ca0f	-0.19608329
70	0x3e69ca55	0.2283109
71	0xbe6142c5	-0.21998127
72	0xbe237431	-0.15962292
73	0xbd999f48	-0.075010836
74	0xbde6b059	-0.112641044
75	0xbeb5a607	-0.3547823
76	0xbbbd50f9	-0.005777475
77	0x3e918d79	0.28428248
78	0xbef06ed4	-0.46959555
79	0x3ce4d494	0.027933396
80	0xbd0151c4	-0.03157212
81	0x3d8cd1ff	0.06875991
82	0x3df700f2	0.12060727
83	0x3d702c8a	0.058636226
84	0xbcbc69ed	-0.022999728
85	0x3d7e69ce	0.062112622
86	0xb8780770	-5.9134734e-05
87	0xbd952ae4	-0.07283571
88	0x3cfe658a	0.031054277
89	0xbe05b6e2	-0.13058046
90	0xbd22340b	-0.039600413
91	0x3cc2e195	0.023789207
92	0x3b40b2f8	0.0029403549
93	0x3d9c9e77	0.07647412
94	0x3d5121dd	0.051057685
95	0x3dab507f	0.08364963
96	0x3d20b6c8	0.039236814
97	0xbe1ddfa7	-0.15417348
98	0x3daa396b	0.08311733
99	0x3ec4952e	0.38395065
100	0x3d4f14f4	0.05055709
101	0xbd8c5663	-0.068524145
102	0x3ded0c6e	0.115746364
103	0xbe0c0073	-0.13672046
104	0x3e263363	0.1623054
105	0x3dd3e639	0.10346646
106	0xbd88f11d	-0.06686614
107	0xbe419444	-0.18904215
108	0x3d8686a6	0.06568651
109	0xbeb4b1b8	-0.3529184
110	0xbcebbc9d	-0.028776461
111	0xbeb92e5d	-0.36168185
112	0xbe1d725e	-0.15375659
113	0x3cc6f284	0.024285562
114	0x3d1471b3	0.036241245
115	0x3e3fced8	0.18731248
116	0x3d9f8dda	0.07790728
117	0xbca281fa	-0.019837368
118	0x3d6bbc26	0.05755248
119	0xbe6a27d8	-0.22866762
120	0x3efa55b5	0.48893514
121	0x3e5beae0	0.21476316
122	0x3d0ece87	0.03486493
123	0xbecf9c78	-0.40549064
124	0x3d3f1d64	0.04665889
125	0x3d5a328f	0.053270873
126	0xbe14290d	-0.14468785
127	0xbe18b9e5	-0.14914663
128	0xbcccad25	-0.024984905
129	0x3b277747	0.0025553273
130	0xbe3540a7	-0.17700444
131	0x3cb4068c	0.021975778
132	0xbdc5c5ab	-0.09656843
133	0xbdc613a5	-0.09671716
134	0xbd25a004	-0.040435806
135	0xbc1811df	-0.009281605
136	0xbdadc118	-0.08484095
137	0xbdd50d8c	-0.104029745
138	0xbd9702e6	-0.073736
139	0x3d87a0eb	0.066224895
140	0x3d3ac6cc	0.045599744
141	0x3d0c3353	0.034228634
142	0x3d215f1b	0.03939734
143	0x3c9bc5c3	0.019015199
144	0x3d84e2d1	0.06488574
145	0xbd68a6ba	-0.056799628
146	0xbc6e1c38	-0.014533095
147	0xbcbd661a	-0.023119975
148	0xbda664fc	-0.0812473
149	0x3870a17e	5.737086e-05
150	0x3df24a75	0.11830608
151	0x3dad01f0	0.08447635
152	0x3da5e0c9	0.08099515
153	0xbd9042f4	-0.0704402
154	0xbd914837	-0.07093852
155	0xbd79fc75	-0.061031777
156	0xbdaf82f3	-0.085698985
157	0xbd891305	-0.06693081
158	0xbe12662a	-0.14296785
159	0x3d4a5f00	0.049407005
160	0xbdcd696e	-0.10029875
161	0xbdeac2b3	-0.11462917
162	0xbd5d767f	-0.054068085
163	0xbd241474	-0.040058568
164	0x3da0a848	0.07844597
165	0xbd74ccab	-0.0597655
166	0xbde1fbca	-0.11034353
167	0xbd841ff4	-0.06451407
168	0xbd6628c9	-0.05619124
169	0xbdb008e8	-0.08595449
170	0x3da56fe8	0.08077985
171	0x3c7c4348	0.0153969005
172	0x3d8b602a	0.06805451
173	0xbdab8a26	-0.08375959
174	0x3b809b4e	0.0039247638
175	0xbe1d8225	-0.15381677
176	0x3da709a3	0.08156135
177	0xbd821f15	-0.06353585
178	0xbd905f97	-0.07049482
179	0xbd4d124a	-0.05006627
180	0xbd9daee2	-0.07699372
181	0xbdb143a2	-0.08655478
182	0xbdd77362	-0.105200544
183	0x3bad0175	0.0052797147
184	0xbd961868	-0.07328874
185	0x3ca1fa7e	0.019772764
186	0xbe041a6d	-0.12900706
187	0xbdb95594	-0.09049526
188	0xbc693e0e	-0.014235986
189	0xbda2b00e	-0.07943736
190	0x3dbdfde1	0.09276939
191	0x3d44ee5a	0.048078872
192	0x3db79ac4	0.08965066
193	0x3db197b5	0.08671514
194	0x3cc2f8a8	0.02380021
195	0xbd1daa33	-0.038492393
196	0xbc972bba	-0.018453468
197	0xbdb68a68	-0.08913118
198	0x3c8b9770	0.017039984
199	0xbdde3456	-0.10849826
200	0xbde97c94	-0.114007145
201	0xbd5e4060	-0.05426061
202	0x3d6d1e6a	0.057890333
203	0xbcc93342	-0.024560574
204	0xbcdf264d	-0.027239943
205	0xbd84a2e0	-0.064763784
206	0xbdced30c	-0.10098848
207	0x3d3871d0	0.045030415
208	0xbd86779e	-0.06565784
209	0xbd338f32	-0.043837734
210	0xbd58a078	-0.05288741
211	0x3d7a28bd	0.061074007
212	0x3da203e0	0.07910895
213	0x3cfbb330	0.030725092
214	0xbd9fb52f	-0.0779823
215	0xbc1828d3	-0.009287077
216	0xbda3f91d	-0.08006499
217	0x3cf92f5d	0.030418092
218	0x3dd14573	0.102183245
219	0xbdfa29e7	-0.122150235
220	0xbe0b38af	-0.13595842
221	0xbd471a09	-0.048608813
222	0xbe0194a1	-0.12654354
223	0x3da870f7	0.08224671
224	0x3ce27d89	0.02764775
225	0xbe0e9524	-0.1392408
226	0xbd6301fd	-0.055421818
227	0x3d340d9f	0.043958303
228	0xbd8d3ab7	-0.068959646
229	0x3b23dd47	0.0025003718
230	0xbc942e6c	-0.018088542
231	0x3d945afd	0.07243917
232	0xbd2c5f32	-0.042082973
233	0xbd414a5f	-0.047190066
234	0x3d59651c	0.05307494
235	0x3ca562f0	0.020188779
236	0x3d194b5d	0.037425388
237	0x3d3fe939	0.046853278
238	0xbdb29951	-0.08720649
239	0x3daf82b5	0.08569852
240	0x3dbc72d8	0.09201592
241	0x3d900de2	0.07033898
242	0x3af94af8	0.0019019535
243	0x3c63e96a	0.013910631
244	0x3da24507	0.07923322
245	0xbc860ab0	-0.016362518
246	0x3dce4e33	0.10073509
247	0x3d9d6f45	0.076872386
248	0x3be76d3c	0.0070625823
249	0x3d4876b3	0.048941325
250	0x3cf57aee	0.029965844
251	0xbca49377	-0.020089848
252	0xbccff7ce	-0.025386717
253	0xbd9b6f4a	-0.07589586
254	0xbcb655b1	-0.022257658
255	0x3cd3a51d	0.025835568

3.bias f4 [32]
0	0x3d67a4ad	0.05655353
1	0xbe5d1367	-0.21589433
2	0x3c9d9896	0.019237798
3	0x3b78cb1d	0.0037962862
4	0xbddd5132	-0.108065024
5	0x3e259ad0	0.16172338
6	0x3dbe8a6d	0.09303746
7	0xbd0becec	-0.034161493
8	0x3d7406d0	0.05957681
9	0x3c903fa7	0.017608477
10	0xbe3cc646	-0.1843501
11	0xbac7957b	-0.0015227044
12	0x3d335344	0.04378058
13	0xbd8df8a4	-0.0693219
14	0x3d8ade12	0.06780638
15	0xbe484a84	-0.19559675
16	0x3d41dc76	0.04732939
17	0xbe74f472	-0.23921373
18	0x3d9f4c6f	0.077782504
19	0xbdc00205	-0.09375385
20	0x3d3449e6	0.044015788
21	0x3dc04af4	0.09389296
22	0xbd0e1038	-0.034683436
23	0xbadcf324	-0.001685713
24	0x3dac24b9	0.08405442
25	0xbe4b10ac	-0.19830579
26	0xbdcdf4d6	-0.100564644
27	0xbe06d777	-0.13168131
28	0x3c948185	0.018128166
29	0xbe05c406	-0.13063058
30	0xbd0f069d	-0.034918416
31	0x3e18d63c	0.14925474

6.weight f4 [1, 32]
0	0x3e61ffaf	0.22070192
1	0x3eabb5e9	0.33537224
2	0xbd99f1d2	-0.07516827
3	0xbc5401a0	-0.012939841
4	0x3e84a98a	0.25910598
5	0x3e032422	0.12806752
6	0xbd94afb5	-0.07260076
7	0x3ecb1d15	0.39670625
8	0xbca0870f	-0.019595651
9	0x3e06c594	0.13161308
10	0x3ef1331f	0.47109315
11	0xbd2273a0	-0.03966105
12	0xbd56f54c	-0.052480027
13	0x3e2a8bd5	0.16654904
14	0xbda2510c	-0.07925615
15	0x3ee1a58b	0.44071612
16	0x3de99184	0.11404708
17	0x3ef13cd9	0.47116736
18	0xbe00350c	-0.12520236
19	0xbca05af8	-0.019574627
20	0xbdd50a35	-0.104023375
21	0x3e17415a	0.14771023
22	0xbd8a00cb	-0.067384325
23	0x39ad2c79	0.00033030266
24	0x3e3c9724	0.1841703
25	0x3e579535	0.21053012
26	0xbe10fc38	-0.14158714
27	0x3e12f05e	0.14349505
28	0x3cdf01b6	0.027222496
29	0xbe181daa	-0.14855066
30	0x3e9ada32	0.30244595
31	0x3e0e5e96	0.13903269
